ex10/pretrained_model.pt (torch, 6493 bytes, 5 tensors)

W1 f4 [10, 50]
00000000: 84cb a1bc 12bd f4bd 0b2e 263d d68b 87bd
00000010: ae9b 0bbe f39c 0cbd 9be1 983d 8609 55bb
00000020: 620e 8e3b 088d 3dbd 3bdd 063d ff61 08be
00000030: 9082 e73c 4e42 9a3c b0ac 43bd 8255 fdbd
00000040: 031e 9dbb 73ca 2bbe a14a 373d db53 edbd
00000050: c6e5 953d a413 073e 9670 e7bd b04b 073e
00000060: 4339 d73d 3b0e 07be 9769 81bd 7058 023d
00000070: d645 51bd 2c48 93bd d6b2 ac3d 1b46 73bd
00000080: 86e9 943b 27c9 c7bd 7778 bd3d abba bd3c
00000090: 006a 093d 2f8f e43d 9037 2f3c 4b0a 3a3e
000000a0: 01cc a6bd 2454 e7bd 82fa d73c 8616 1a3e
000000b0: 0115 9bbd e22b b9bd 9951 583d fe8a e13d
000000c0: 8f32 833d 05f0 b03d 9896 1a3e b177 503b
000000d0: b752 a6bd c442 693d 957c e13c f0db 703d
000000e0: aa1c 62bd 6562 8b3d c5a8 753d 4411 8cbd
000000f0: dfd8 d8bd 651a 663d fb6d bebc 9eb6 9a3c
00000100: 8ae6 963d cf33 683e 1841 4ebd 996d 69bd
00000110: 3444 603d aa05 e2bd 359a b53d d4ee a5bd
00000120: 51db bfbd 7b21 983d 999e 183e ab77 34bd
00000130: 171f e03d 6d46 7f3d a201 df3d 8f3b 7c3d
00000140: 3349 13bd dd38 eebd 0408 e7bd 2965 2b3d
00000150: 96eb aabc 5873 45bd efbf ea3c 958f 243d
00000160: c7bc 9dbd 7aee f9bd d8b8 91bd 8970 273c
00000170: 7045 1abc 7772 033d 5de5 ff38 cc56 0cbe
00000180: ed1e 29be ed82 f9bd d460 723c efff 1b3e
00000190: 5271 dcbd d0a9 86bd 6980 5ebd e437 583d
000001a0: eb9f c93d cda7 23be 8a92 f73d 0376 11bd
000001b0: 3498 353e 7c11 bd3c b93d 84bd b84d d6bc
000001c0: f951 48bb 549d 9f3d 69d9 0b3d ce23 d8be
000001d0: 5fa6 163d e0fb 78bd 74dc 5ebe 9359 debd
000001e0: 1c02 01be 4ec3 4c3d a6a8 033c d6a1 9d3d
000001f0: af69 0a3d 96b1 93bd b215 1bbe 585a 9f3d
00000200: 96e2 3dbe 0440 a03b 0e1b ab3d 7e91 813e
00000210: 4975 26bd 6fb2 63bc a95f fd3b b016 9f3c
00000220: 814a f2bd 620d 253e 4a6a ce3d 2ff0 2d3d
00000230: a592 9b3d 51d4 823d da09 04bc 50be 3d3d
00000240: fd74 09bd 6c1a 243d 5510 3f3e 13e0 d73d
00000250: 511d 64be 5e27 fdbd ad10 27be ee2e d2bb
00000260: b5b5 dc3d 3263 91bd c56a 5dbc c885 153e
00000270: 4312 8fbd 7e95 2b3e 05a5 1ebc db45 9b3c
00000280: 5ff2 ffbd d277 50bd 1189 df3d 50af 1abe
00000290: 3492 883d 2608 5dbe 4229 b1bd 0a45 023d
000002a0: a88c 09bc ac24 193e d8e6 03be 96e2 4dbc
000002b0: 4b7a 1d3d 9962 d8bd c053 22bc 89e6 803d
000002c0: 6e81 8dbd 93b0 413c 9ea7 d63d 781f db3d
000002d0: bbb8 14bd 195a df3d 2674 1c3e d9d9 cb3d
000002e0: b528 923d a409 7ebd ca8c 583d cdaa b53d
000002f0: a295 ff3d b526 f0ba cebe 183f bfb7 69bd
00000300: 70f1 a0bd 985c 213c d906 033e fff0 17bd
00000310: 3184 8c3d a946 15bd aec8 c6bc 8cec b83d
00000320: 2483 273e 76a2 033e 0e6e b6bd b219 123e
00000330: 3765 073d 39c4 e53d 2d10 d23c 93f6 f23d
00000340: 8514 16be 0f4e 1f3d aaf1 4c3d 62f2 91be
00000350: a603 df3d e608 783d eee9 253e 51b4 a6be
00000360: 8786 143e 425a a43d da33 bbbd 3c78 863d
00000370: 8cb3 ec3d d28e 813d 3b48 0d3e 3558 183e
00000380: 9ecc bcbd 3421 f4bd f581 213d 6d0a afbd
00000390: 752e 043e b42f b2bd ddb6 e1bc dde1 8cba
000003a0: 3341 22be b4c4 853c 7f94 823d 4e88 96bc
000003b0: e931 5cbd 5a3c dc3d 2db8 113e a6b6 6b3d
000003c0: cc77 9c3e 9842 1b3e 7d37 f83c ddb3 e1bd
000003d0: 5dd7 46ba 5e1e 6b3b c7d1 c63c 8faa 903d
000003e0: 9814 333e 21d3 2fbe cd12 85bc 64b7 07bd
000003f0: 20cd 1f3d 70e2 72bd 92c4 18be d328 9c3d
-0.019750364 -0.11950125 0.040571254 -0.066184685 -0.13633606 -0.034329366 0.07464906 -0.0032506897
0.0043352107 -0.046277076 0.032925826 -0.13318633 0.0282605 0.018830445 -0.04777211 -0.12369825
-0.0047948374 -0.16776447 0.044748906 -0.1158826 0.073192164 0.13191086 -0.11300771 0.13212466
0.10508969 -0.13189022 -0.06318968 0.03182262 -0.05109199 -0.071915 0.08432548 -0.05939303
0.0045444397 -0.09755164 0.092514925 0.0231603 0.033548355 0.111601226 0.0106943995 0.18167989
-0.081443794 -0.112953454 0.026364569 0.15047655 -0.075723656 -0.09041573 0.052812193 0.11012839
0.06406128 0.0863953 0.1509651 0.0031809623 -0.08121245 0.05694844 0.027525226 0.0588035
-0.055203117 0.06805877 0.059975404 -0.06839231 -0.1058824 0.056177516 -0.023245802 0.018885907
0.073681906 0.22676013 -0.050355047 -0.056989286 0.054752544 -0.110362366 0.08867303 -0.081021935
-0.09368003 0.07428261 0.1490425 -0.044059437 0.1094343 0.062323023 0.10888983 0.061580237
-0.03595848 -0.116319396 -0.11280826 0.04184452 -0.02086429 -0.048205703 0.028655974 0.040175993
-0.07702022 -0.12203689 -0.07115334 0.010219702 -0.009415969 0.032091584 0.0001220207 -0.13704985
-0.16515703 -0.12183175 0.014793593 0.1523435 -0.10763802 -0.06575358 -0.05432168 0.052787676
0.09844955 -0.1598198 0.12088497 -0.035512935 0.17733842 0.023079626 -0.06457085 -0.026160106
-0.0030566438 0.0779368 0.034142885 -0.42214817 0.036779758 -0.06078708 -0.21763784 -0.10856929
-0.12598461 0.049990945 0.008035814 0.076968834 0.033792194 -0.07211606 -0.15144995 0.077809036
-0.18543467 0.0048904438 0.0835477 0.25306314 -0.040639196 -0.013897522 0.007732351 0.019419998
-0.11830617 0.16118386 0.10078867 0.042465385 0.075963296 0.063881524 -0.008058989 0.046324074
-0.033558834 0.04006426 0.18658574 0.10540786 -0.22276808 -0.12361024 -0.16314955 -0.006414286
0.10776845 -0.07098998 -0.013514225 0.14601815 -0.06985905 0.16756245 -0.009682898 0.018954208
-0.124974005 -0.05089552 0.10914815 -0.15105939 0.06668511 -0.2158514 -0.086504474 0.031804122
-0.0083953515 0.14955395 -0.12881029 -0.012566229 0.038446706 -0.10565681 -0.009907663 0.06293971
-0.069094524 0.011821884 0.10481189 0.106993616 -0.036308985 0.10905857 0.15278682 0.099536605
0.071366705 -0.062020913 0.052868642 0.08870468 0.12479712 -0.0018322082 0.59666145 -0.05706
-0.078585505 0.009848736 0.12795581 -0.037095066 0.06861151 -0.03644434 -0.024265613 0.09029493
0.1635862 0.12854943 -0.0890771 0.14267614 0.03305551 0.11219067 0.025642479 0.118634365
-0.14656265 0.0388928 0.050035156 -0.28505236 0.10889368 0.06055536 0.16202518 -0.32559446
0.14504443 0.08025028 -0.09140749 0.06565902 0.11557683 0.06326069 0.13797085 0.14877398
-0.09218715 -0.119203955 0.039430577 -0.085469104 0.12908347 -0.08700505 -0.027553016 -0.0010748465
-0.15845184 0.016329147 0.0637598 -0.018375542 -0.053758536 0.10753699 0.14230414 0.057547234
0.30560148 0.15162122 0.030299896 -0.11020634 -0.0007585192 0.0035876255 0.024269952 0.070637815
0.17488325 -0.17170383 -0.016244316 -0.03313388 0.03901398 -0.05929798 -0.14918736 0.07624974

W2 f4 [50, 10]
00000000: e21b 453d 228c 5c3e c8df afbc a204 ed3d
00000010: 2bac 963d ca90 a73e 7aaa 0ebe 109e 93be
00000020: 0255 ac3e 8dc6 35be e9a1 1cbe 28f7 b3bc
00000030: 927d 6dbe 56b1 f9bd e791 c2bd c613 a6bd
00000040: 7694 9cbe f143 eabd db3f 763e 25f1 963e
00000050: 2b7e a03b dd62 b23c 0ddf 88be c618 f2bd
00000060: 1a9b 473b e709 123e 53f6 8e3e ba55 50be
00000070: c28b 9fbb 93ad ab3d bc3a 8abe 5771 733d
00000080: dafa 333e 1b86 64bd fcfb f2bd 2bf1 903d
00000090: 617c 85bc c899 a6bd b342 8f3e 193c 283c
000000a0: 9ae1 7ebc 69a9 2fbe 447f 013d b5b1 82be
000000b0: 30d2 a7be 9f07 0dbe b536 28be 2043 803d
000000c0: b02a 8e3d a181 86be 18d3 9e3c 5371 72be
000000d0: ffb5 bf3d 1a13 853e d2c4 eabe dcbf d03d
000000e0: f760 893e f02a ea3d 98f9 06be 0a8b 32bd
000000f0: 4e15 013e 031f ad3e ef5d 66be 9fc1 823e
00000100: a804 33be 9b07 ccbd d599 87bd eaba 1abe
00000110: ca8f 79bd edfb 9a3e bb05 893e a058 593e
00000120: 2e36 04bc c098 4ebd 5aec 3c3e a15a fb3d
00000130: 0aac ee3d 496e 713e ca78 5fbe 23f8 22bd
00000140: af0d 533e 6c8b 6dbe 7a6d b33e 0292 e43c
00000150: ea38 d53d 5a0c 65be 10c6 8a3e 960e 16be
00000160: 6368 85be eacc 60bd 314c 33be 230a a3bd
00000170: de86 04be 8fcf 49be 1c9c 0e3e 2dae 9cbe
00000180: 9a97 4bbe 9622 02be e41c 643d 6890 f9bc
00000190: cc5c 093d d20d 34bd 587a 03bd c8bc 123e
000001a0: 7e2a 15be e319 523e 6e60 af3c 4b7b 2a3e
000001b0: 8d48 453e 2236 643e 49a2 eebc 9871 70be
000001c0: b563 843e f842 833e f3fe 473c f599 aebe
000001d0: 2afe 27be 18de a8be ee9d c23d 5800 983e
000001e0: 4d51 683e 8e95 233e b13a 5abe 1eb1 3dbe
000001f0: 00f7 dc3d 952c c5be 7a0d 8fbe c33b 1fbe
00000200: 664d 173e e4c8 c9bd 9026 4c3d 2620 063e
00000210: 7b3a 923e 9041 c5bb 4bc1 80be b0c3 8cbe
00000220: c6ee 3d3d 0393 ac3e e7b5 183e 32a7 5dbe
00000230: 82ff 4bbe afd7 e93d 9a65 49be ccb2 21be
00000240: f4d7 19be e9ba 4cbe 3e8d 793e 5fa9 4e3e
00000250: ce78 b0be dbdd b83e 763d 53bd 2513 3a3e
00000260: 36eb 0b3e b328 6e3d 61f9 bbbd 316e 8abc
00000270: 1e75 113e eb33 9cbe d668 b7bd c6cc 923d
00000280: 630d 5bbe dc4f 84be 82a0 ef3d 01c0 2a3e
00000290: 8698 92be ee0f 713e e498 f43d 4918 0cbe
000002a0: ee8b 8f3d 67a4 4b3e cd3b b23d 1ff8 8abe
000002b0: 0d66 913e c913 423e 95fd 553d 269a 0f3d
000002c0: 876f 2d3e 5e34 92be b7ad 323e bec0 e0bd
000002d0: 5b56 0c3e 8f30 ba3d cebd 413e 07e5 2b3e
000002e0: 996f 1a3e ff54 783e 8827 9a3e 68ed 4d3d
000002f0: 9b3e 93be c866 383e 4910 74be 8c0b a1bd
00000300: 9806 5fbe 67d5 0abe d90d 1bbe 9b0a 1e3e
00000310: 75c6 a43d 8fbe 53be 697a c1bd 10d3 5bbe
00000320: 6303 aebc 8bb6 05be ab55 52be 286b 4e3e
00000330: 4088 14be ceb7 bc3d 9bc6 b83e 7467 6dbd
00000340: b331 b93c 328f fbbd 2810 f5bd d86f 70bd
00000350: 4970 2abd dcc6 8d3d c4c1 adbe 232d c5be
00000360: 826c 233e 0617 e23e d4e3 723d d635 663e
00000370: 18ba 99bd 1ffc c8bd 74cb 02bd 61f1 d63d
00000380: 8b6e 2f3b afb4 a5bd f44b ec3d 55fb 64be
00000390: 6912 823e 106c 4bbe a6b9 0abd 48be 0f3e
000003a0: 61fb 833e 168c c23d 6ce1 a7bd f42f b93d
000003b0: c697 513e b226 9ebe bf3b 0dbe 28a9 42bc
000003c0: 93b6 763e 88f2 caba a1ee 183e 9489 a93d
000003d0: 1d24 643e 4049 7bbd 259e 84be 4b81 f9bd
000003e0: 96fc 263e 21bc b4bd 6478 853d 1fd2 3cbd
000003f0: 3fa5 ba3d a9fa 013e 340d 88bd 5999 a73e
0.048122294 0.21537831 -0.021469012 0.11573149 0.07357057 0.32727653 -0.13932219 -0.2883153
0.33658606 -0.17751522 -0.15296139 -0.02196844 -0.23192433 -0.12192027 -0.09500485 -0.0810924
-0.30582017 -0.1143874 0.24047796 0.29480854 0.004897853 0.021775657 -0.26732674 -0.118211314
0.0030457438 0.1426159 0.27922305 -0.20345202 -0.0048689554 0.08382716 -0.26997936 0.05943426
0.17576161 -0.055791955 -0.118644685 0.07077249 -0.01629466 -0.081348 0.27980575 0.010268235
-0.015556717 -0.17154469 0.03161551 -0.25526205 -0.32777548 -0.13772438 -0.16427119 0.06262803
0.06941736 -0.26270774 0.019387767 -0.23676042 0.09360885 0.25991136 -0.45853287 0.10192844
0.2683179 0.11433971 -0.1318115 -0.04358963 0.12605783 0.33812723 -0.2249677 0.25538346
-0.17482245 -0.09962388 -0.06621138 -0.15110365 -0.060928144 0.3027033 0.26762185 0.21225214
-0.008069558 -0.050438643 0.18449536 0.122731455 0.116539076 0.23577227 -0.21823421 -0.039787423
0.20610689 -0.23197716 0.3504446 0.027901653 0.10411246 -0.22367993 0.27104235 -0.14654002
-0.26056203 -0.05488292 -0.17509533 -0.07960918 -0.12942073 -0.19708084 0.13926739 -0.30601636
-0.1988205 -0.12708506 0.055691615 -0.030464366 0.033535764 -0.043958493 -0.032099098 0.14329827
-0.1456699 0.20517687 0.021408286 0.16648595 0.19265957 0.22286275 -0.029130118 -0.23480833
0.2585732 0.2563703 0.012206781 -0.34101835 -0.1640555 -0.32981944 0.09502779 0.29687762
0.22687264 0.1597502 -0.21311451 -0.18524596 0.10789299 -0.38510576 -0.2793997 -0.15550141
0.14775619 -0.0985277 0.049841464 0.13098201 0.28560242 -0.0060197785 -0.2514747 -0.27493048
0.04637029 0.3370591 0.1491314 -0.21645811 -0.19921687 0.114180915 -0.19667664 -0.15790862
-0.15023786 -0.19993176 0.24370286 0.20181797 -0.34467167 0.36106762 -0.051572286 0.18171366
0.13663945 0.058144283 -0.091784246 -0.016898246 0.14204833 -0.3050836 -0.08955543 0.07167964
-0.21391825 -0.25842178 0.11700536 0.16674806 -0.2863199 0.23541233 0.11943224 -0.13681139
0.07009111 0.19886933 0.08702812 -0.27142426 0.2839817 0.1895286 0.052243788 0.035059117
0.16937076 -0.28555578 0.1744908 -0.10974263 0.13704817 0.09091293 0.18920061 0.16786586
0.15081634 0.24251173 0.30108285 0.050275236 -0.28758702 0.18007958 -0.23834337 -0.078635305
-0.21779859 -0.13557969 -0.15142001 0.15433733 0.08045665 -0.20678161 -0.09447176 -0.21467233
-0.02124185 -0.13057916 -0.20540492 0.20158064 -0.145051 0.092147455 0.36089024 -0.05795999
0.022606706 -0.12283172 -0.11965972 -0.058700413 -0.04161099 0.06922695 -0.33936894 -0.38511
0.15959361 0.4415819 0.059299305 0.22481474 -0.07506198 -0.09813713 -0.03193231 0.10495258
0.002676877 -0.08091103 0.115379244 -0.223615 0.2540467 -0.19865441 -0.033868454 0.1403743
0.25777724 0.094993755 -0.08197293 0.090423495 0.20468053 -0.30888897 -0.13792323 -0.01188115
0.24093084 -0.0015483657 0.1493478 0.08278194 0.22279401 -0.061349154 -0.25901905 -0.12182864
0.16307291 -0.08824945 0.06517103 -0.046098825 0.091135494 0.12693276 -0.06643143 0.32734182

A f4 [10]
00000000: 10b5 4a3f 3010 413f 024e 6e3f 98de 1a3f
00000010: 25e8 073f 9601 0a3f 925f f93e 0c17 d83e
00000020: 6f00 0d3f 0bb3 fb3e
0.7918253 0.75415325 0.9308778 0.604959 0.530886 0.5390867 0.48705727 0.42205083
0.55078787 0.49160036

h2 f4 [50]
00000000: 4dd8 c93d 4ff2 babd 2c5a b53d e8b7 ad3d
00000010: 842a ac3c 9e37 ed3d 43c7 22bd 3ce4 a0bd
00000020: e287 d8bc 780f 3cbd 6d09 133e 5ef3 60bd
00000030: f89c 06bd faca 943d e4ea f63d 9c55 b2be
00000040: 212d a2bc e3d9 0d3e 7226 9bbe 1fad 943d
00000050: b799 a23c 081b c83d ca2c b2bd 0fc5 d43d
00000060: f1df cd3c 3a4a 18bd 7001 12be 5dbe fe3d
00000070: 3247 81bd fa83 e03c 2661 2f3c 96b6 76be
00000080: ee2a 423e 0568 2b3d 4c85 a03d 6e99 953d
00000090: d532 74be 61a1 1a3e ad8f 9abe a9a2 e5bd
000000a0: 6927 8d3d 5d55 63be 8d70 52bd 4979 2ebd
000000b0: fb97 f8bd e8a4 0fbd 0b6e afbe 2779 c93c
000000c0: 4620 693c 0f10 51be
0.09855709 -0.09128248 0.088550895 0.08482343 0.021016367 0.11582874 -0.039740812 -0.07856032
-0.026431981 -0.04591319 0.14359064 -0.054919593 -0.03286454 0.07265277 0.120565206 -0.3483094
-0.01979691 0.13852648 -0.3030277 0.07259583 0.019848688 0.09770781 -0.08699949 0.103891484
0.025131198 -0.037180163 -0.14258361 0.12438653 -0.063124076 0.027406681 0.010704314 -0.24093089
0.18961689 0.041847248 0.07837924 0.07304655 -0.23847516 0.15100624 -0.3018774 -0.112126656
0.068922825 -0.22200532 -0.051376868 -0.042596135 -0.12138363 -0.035069376 -0.34263644 0.024593903
0.014228886 -0.20416282

h1 f4 [10]
00000000: 94d4 63bc dc9f 083a 9494 8abb 70b1 91bc
00000010: 62ec 93bc e553 273d 68d8 c0bc 9e26 32bd
00000020: 7767 973c 7310 1e3b
-0.013905663 0.0005211809 -0.0042291377 -0.017784804 -0.018057052 0.040851492 -0.02354069 -0.04349386
0.018481953 0.0024118691
